…
  \ 图 5-25. 使用 TensorFlow 后端\n\n模拟现在将开始，如图 5-26 所示。\n\n![A454310_1_En_5_Fig26_HTML.jpg](img/A454310_1_En_5_Fig26_HTML.jpg)\
  \ 图 5-26. 模拟进行中\n\n模拟运行并使用深度 Q 学习训练模型。通过练习，小车-杆将沿着绳索保持平衡；其稳定性随着学习而提高。整个过程会生成以下日志：\n\
  \n```\n(universe) abhi@ubuntu:∼/keras-rl/examples$ python dqn_cartpole.py\nUsing\
  \ TensorFlow backend.\n[2017-09-24 09:36:27,476] Making new env: CartPole-v0\n_________________________________________________________________\n\
  Layer (type)                 Output Shape              Param #\n=================================================================\n\
  flatten_1 (Flatten)          (None, 4)                 0\n_________________________________________________________________\n\
  dense_1 (Dense)              (None, 16)                80\n_________________________________________________________________\n\
  activation_1 (Activation)    (None, 16)                0\n_________________________________________________________________\n\
  dense_2 (Dense)              (None, 16)                272\n_________________________________________________________________\n\
  activation_2 (Activation)    (None, 16)                0\n_________________________________________________________________\n\
  dense_3 (Dense)              (None, 16)                272\n_________________________________________________________________\n\
  activation_3 (Activation)    (None, 16)                0\n_________________________________________________________________\n\
  dense_4 (Dense)              (None, 2)                 34\n_________________________________________________________________\n\
  activation_4 (Activation)    (None, 2)                 0\n=================================================================\n\
  Total params: 658\nTrainable params: 658\nNon-trainable params: 0\n_________________________________________________________________\n\
  None\n2017-09-24 09:36:27.932219: W tensorflow/core/platform/cpu_feature_guard.cc:45]\
  \ The TensorFlow library wasn't compiled to use AVX instructions, but these are\
  \ available on your machine and could speed up CPU computations.\n...\n    712/50000:\
…
