…
    \ Figure 5-26. Simulation happens\n\nThe simulation occurs and trains the model\
    \ using Deep Q Learning. With practice, the cart-pole will balance along the rope;\
    \ its stability increases with learning. The entire process creates the following\
    \ log:\n\n```\n(universe) abhi@ubuntu:∼/keras-rl/examples$ python dqn_cartpole.py\n\
    Using TensorFlow backend.\n[2017-09-24 09:36:27,476] Making new env: CartPole-v0\n\
    _________________________________________________________________\nLayer (type)\
    \                 Output Shape              Param #\n=================================================================\n\
    flatten_1 (Flatten)          (None, 4)                 0\n_________________________________________________________________\n\
    dense_1 (Dense)              (None, 16)                80\n_________________________________________________________________\n\
    activation_1 (Activation)    (None, 16)                0\n_________________________________________________________________\n\
    dense_2 (Dense)              (None, 16)                272\n_________________________________________________________________\n\
    activation_2 (Activation)    (None, 16)                0\n_________________________________________________________________\n\
    dense_3 (Dense)              (None, 16)                272\n_________________________________________________________________\n\
    activation_3 (Activation)    (None, 16)                0\n_________________________________________________________________\n\
    dense_4 (Dense)              (None, 2)                 34\n_________________________________________________________________\n\
    activation_4 (Activation)    (None, 2)                 0\n=================================================================\n\
    Total params: 658\nTrainable params: 658\nNon-trainable params: 0\n_________________________________________________________________\n\
    None\n2017-09-24 09:36:27.932219: W tensorflow/core/platform/cpu_feature_guard.cc:45]\
    \ The TensorFlow library wasn't compiled to use AVX instructions, but these are\
    \ available on your machine and could speed up CPU computations.\n...\n    712/50000:\
…
