…
  \ 128 个节点，使用 ReLU 激活函数；第二层包含 10 个节点，使用 softmax 激活函数。请记住，我们的网络应该输出 10 个类别，因此最后一层包含\
  \ 10 个节点。可以使用以下代码生成网络图：\n\n```\nfrom tensorflow.keras.utils import plot_model\n\
  plot_model(model_1, to_file='model1.png')\n```\n\n生成的网络图如图 3-16 所示。\n\n![../images/495303_1_En_3_Chapter/495303_1_En_3_Fig16_HTML.jpg](img/495303_1_En_3_Fig16_HTML.jpg)\n\
  \n**图 3-16** 模型 1 的网络图\n\n可以通过在`model_1`实例上调用`summary`方法来打印网络摘要，如下所示：\n\n```\nModel:\
  \ \"sequential\"\n_______________________________________________________________\n\
  Layer (type)                 Output Shape              Param #\n===============================================================\n\
  conv2d (Conv2D)              (None, 32, 32, 32)        896\n_______________________________________________________________\n\
  conv2d_1 (Conv2D)            (None, 32, 32, 32)        9248\n_______________________________________________________________\n\
  max_pooling2d (MaxPooling2D) (None, 16, 16, 32)        0\n_______________________________________________________________\n\
  flatten (Flatten)            (None, 8192)              0\n_______________________________________________________________\n\
  dense (Dense)                (None, 128)               1048704\n_______________________________________________________________\n\
  dense_1 (Dense)              (None, 10)                1290\n===============================================================\n\
  Total params: 1,060,138\nTrainable params: 1,060,138\nNon-trainable params: 0\n\
  ```\n\n定义网络后，我们将优化器设置为 SGD，并使用损失函数`categorical_crossentropy`编译模型，如下面的代码片段所示：\n\n\
  ```\nopt = tf.keras.optimizers.SGD(lr=0.001, momentum=0.9)\nmodel_1.compile(optimizer=opt,\
  \ loss = 'categorical_crossentropy', metrics = ['accuracy'])\n```\n\n现在，我们通过调用之前定义的`results`函数，并将`model_1`作为参数传递给它，来训练、评估并显示误差指标。\n\
…
  \ 3), activation = 'relu', padding = 'same'),\nMaxPooling2D((2, 2)),\nFlatten(),\n\
  Dense(128, activation = 'relu'),\nDense(10, activation = 'softmax')\n])\nopt = tf.keras.optimizers.SGD(lr\
  \ = 0.001, momentum = 0.9)\nmodel_2.compile(optimizer = opt, loss =\n'categorical_crossentropy',\n\
  metrics = ['accuracy'])\n```\n\n为方便快速查阅，下方打印了模型摘要：\n\n```\nModel: \"sequential_1\"\
  \n_______________________________________________________________\nLayer (type)\
  \                 Output Shape              Param #\n===============================================================\n\
  conv2d_2 (Conv2D)            (None, 32, 32, 32)        896\n_______________________________________________________________\n\
  conv2d_3 (Conv2D)            (None, 32, 32, 32)        9248\n_______________________________________________________________\n\
  max_pooling2d_1 (MaxPooling2 (None, 16, 16, 32)        0\n_______________________________________________________________\n\
  conv2d_4 (Conv2D)            (None, 16, 16, 64)        18496\n_______________________________________________________________\n\
  conv2d_5 (Conv2D)            (None, 16, 16, 64)        36928\n_______________________________________________________________\n\
  max_pooling2d_2 (MaxPooling2 (None, 8, 8, 64)          0\n_______________________________________________________________\n\
  flatten_1 (Flatten)          (None, 4096)              0\n_______________________________________________________________\n\
  dense_2 (Dense)              (None, 128)               524416\n_______________________________________________________________\n\
  dense_3 (Dense)              (None, 10)                1290\n===============================================================\n\
  Total params: 591,274\nTrainable params: 591,274\nNon-trainable params: 0\n```\n\
  \n网络结构图如图 3-19 所示。\n\n![../images/495303_1_En_3_Chapter/495303_1_En_3_Fig19_HTML.jpg](img/495303_1_En_3_Fig19_HTML.jpg)\n\
  \n图 3-19\n\n模型 2 网络结构图\n\n模型的误差指标如图 3-20 所示。\n\n![../images/495303_1_En_3_Chapter/495303_1_En_3_Fig20_HTML.jpg](img/495303_1_En_3_Fig20_HTML.jpg)\n\
…
  \ = 'relu', padding = 'same'),\nConv2D(128, (3, 3), activation = 'relu', padding\
  \ = 'same'),\nMaxPooling2D((2, 2)),\nFlatten(),\nDense(128, activation = 'relu'),\n\
  Dense(10, activation = 'softmax')\n])\nopt = tf.keras.optimizers.SGD(lr = 0.001,\
  \ momentum = 0.9)\nmodel_3.compile(optimizer = opt, loss = 'categorical_crossentropy',\n\
  metrics = ['accuracy'])\n```\n\n模型摘要如下：\n\n```\nModel: \"sequential_2\"\n_______________________________________________________________\n\
  Layer (type)                 Output Shape              Param #\n===============================================================\n\
  conv2d_6 (Conv2D)            (None, 32, 32, 32)        896\n_______________________________________________________________\n\
  conv2d_7 (Conv2D)            (None, 32, 32, 32)        9248\n_______________________________________________________________\n\
  max_pooling2d_3 (MaxPooling2 (None, 16, 16, 32)        0\n_______________________________________________________________\n\
  conv2d_8 (Conv2D)            (None, 16, 16, 64)        18496\n_______________________________________________________________\n\
  conv2d_9 (Conv2D)            (None, 16, 16, 64)        36928\n_______________________________________________________________\n\
  max_pooling2d_4 (MaxPooling2 (None, 8, 8, 64)          0\n_______________________________________________________________\n\
  conv2d_10 (Conv2D)           (None, 8, 8, 128)         73856\n_______________________________________________________________\n\
  conv2d_11 (Conv2D)           (None, 8, 8, 128)         147584\n_______________________________________________________________\n\
  max_pooling2d_5 (MaxPooling2 (None, 4, 4, 128)         0\n_______________________________________________________________\n\
  flatten_2 (Flatten)          (None, 2048)              0\n_______________________________________________________________\n\
  dense_4 (Dense)              (None, 128)               262272\n_______________________________________________________________\n\
  dense_5 (Dense)              (None, 10)                1290\n===============================================================\n\
  Total params: 550,570\nTrainable params: 550,570\nNon-trainable params: 0\n```\n\
  \n该模型的网络结构图如图 3-21 所示。\n\n![../images/495303_1_En_3_Chapter/495303_1_En_3_Fig21_HTML.jpg](img/495303_1_En_3_Fig21_HTML.jpg)\n\
  \n图 3-21\n\n模型 3 网络结构图\n\n模型的误差指标如图 3-22 所示。\n\n![../images/495303_1_En_3_Chapter/495303_1_En_3_Fig22_HTML.jpg](img/495303_1_En_3_Fig22_HTML.jpg)\n\
…
  Conv2D(128, (3, 3), activation = 'relu', kernel_initializer =\n'he_uniform', padding\
  \ = 'same'),\nMaxPooling2D((2, 2)),\nDropout(0.3),\nFlatten(),\nDense(128, activation\
  \ = 'relu'),\nDense(10, activation = 'softmax')\n])\nopt = tf.keras.optimizers.SGD(lr\
  \ = 0.001, momentum = 0.9)\nmodel_4.compile(optimizer = opt, loss = 'categorical_crossentropy',\n\
  metrics = ['accuracy'])\n```\n\n模型摘要如下：\n\n```\nModel: \"sequential_3\"\n_______________________________________________________________\n\
  Layer (type)                 Output Shape              Param #\n===============================================================\n\
  conv2d_12 (Conv2D)           (None, 32, 32, 32)        896\n_______________________________________________________________\n\
  conv2d_13 (Conv2D)           (None, 32, 32, 32)        9248\n_______________________________________________________________\n\
  max_pooling2d_6 (MaxPooling2 (None, 16, 16, 32)        0\n_______________________________________________________________\n\
  dropout (Dropout)            (None, 16, 16, 32)        0\n_______________________________________________________________\n\
  conv2d_14 (Conv2D)           (None, 16, 16, 64)        18496\n_______________________________________________________________\n\
  conv2d_15 (Conv2D)           (None, 16, 16, 64)        36928\n_______________________________________________________________\n\
  max_pooling2d_7 (MaxPooling2 (None, 8, 8, 64)          0\n_______________________________________________________________\n\
  dropout_1 (Dropout)          (None, 8, 8, 64)          0\n_______________________________________________________________\n\
  conv2d_16 (Conv2D)           (None, 8, 8, 128)         73856\n_______________________________________________________________\n\
  conv2d_17 (Conv2D)           (None, 8, 8, 128)         147584\n_______________________________________________________________\n\
  max_pooling2d_8 (MaxPooling2 (None, 4, 4, 128)         0\n_______________________________________________________________\n\
  dropout_2 (Dropout)          (None, 4, 4, 128)         0\n_______________________________________________________________\n\
  flatten_3 (Flatten)          (None, 2048)              0\n_______________________________________________________________\n\
  dense_6 (Dense)              (None, 128)               262272\n_______________________________________________________________\n\
  dense_7 (Dense)              (None, 10)                1290\n===============================================================\n\
  Total params: 550,570\nTrainable params: 550,570\nNon-trainable params: 0\n```\n\
  \n该模型的网络图如图 3-23 所示。\n\n![../images/495303_1_En_3_Chapter/495303_1_En_3_Fig23_HTML.jpg](img/495303_1_En_3_Fig23_HTML.jpg)\n\
  \n图 3-23\n\n模型 4 网络图\n\n模型的误差指标如图 3-24 所示。\n\n![../images/495303_1_En_3_Chapter/495303_1_En_3_Fig24_HTML.jpg](img/495303_1_En_3_Fig24_HTML.jpg)\n\
…
  \ kernel_regularizer =\ntf.keras.regularizers.l2(weight_decay), padding = 'same'),\n\
  BatchNormalization(),\nMaxPooling2D((2, 2)),\nDropout(0.3),\nFlatten(),\nDense(128,\
  \ activation = 'relu'),\nDense(10, activation = 'softmax')\n])\nopt = tf.keras.optimizers.SGD(lr\
  \ = 0.001, momentum = 0.9)\nmodel_5.compile(optimizer = opt, loss = 'categorical_crossentropy',\n\
  metrics = ['accuracy'])\n```\n\n模型摘要如下：\n\n\n\n```\nModel: \"sequential_4\"\n_______________________________________________________________\n\
  Layer (type)                 Output Shape              Param #\n===============================================================\n\
  conv2d_18 (Conv2D)           (None, 32, 32, 32)        896\n_______________________________________________________________\n\
  batch_normalization (BatchNo (None, 32, 32, 32)        128\n_______________________________________________________________\n\
  conv2d_19 (Conv2D)           (None, 32, 32, 32)        9248\n_______________________________________________________________\n\
  batch_normalization_1 (Batch (None, 32, 32, 32)        128\n_______________________________________________________________\n\
  max_pooling2d_9 (MaxPooling2 (None, 16, 16, 32)        0\n_______________________________________________________________\n\
  dropout_3 (Dropout)          (None, 16, 16, 32)        0\n_______________________________________________________________\n\
  conv2d_20 (Conv2D)           (None, 16, 16, 64)        18496\n_______________________________________________________________\n\
  batch_normalization_2 (Batch (None, 16, 16, 64)        256\n_______________________________________________________________\n\
  conv2d_21 (Conv2D)           (None, 16, 16, 64)        36928\n_______________________________________________________________\n\
  batch_normalization_3 (Batch (None, 16, 16, 64)        256\n_______________________________________________________________\n\
  max_pooling2d_10 (MaxPooling (None, 8, 8, 64)          0\n_______________________________________________________________\n\
  dropout_4 (Dropout)          (None, 8, 8, 64)          0\n_______________________________________________________________\n\
  conv2d_22 (Conv2D)           (None, 8, 8, 128)         73856\n_______________________________________________________________\n\
  batch_normalization_4 (Batch (None, 8, 8, 128)         512\n_______________________________________________________________\n\
  conv2d_23 (Conv2D)           (None, 8, 8, 128)         147584\n_______________________________________________________________\n\
  batch_normalization_5 (Batch (None, 8, 8, 128)         512\n_______________________________________________________________\n\
  max_pooling2d_11 (MaxPooling (None, 4, 4, 128)         0\n_______________________________________________________________\n\
  dropout_5 (Dropout)          (None, 4, 4, 128)         0\n_______________________________________________________________\n\
  flatten_4 (Flatten)          (None, 2048)              0\n_______________________________________________________________\n\
  dense_8 (Dense)              (None, 128)               262272\n_______________________________________________________________\n\
  dense_9 (Dense)              (None, 10)                1290\n===============================================================\n\
  Total params: 552,362\nTrainable params: 551,466\nNon-trainable params: 896\n```\n\
  \n网络结构图如图 3-25 所示。\n\n![../images/495303_1_En_3_Chapter/495303_1_En_3_Fig25_HTML.jpg](img/495303_1_En_3_Fig25_HTML.jpg)\n\
  \n**图 3-25** 模型 5 网络结构图\n\n误差指标图如图 3-26 所示。\n\n![../images/495303_1_En_3_Chapter/495303_1_En_3_Fig26_HTML.jpg](img/495303_1_En_3_Fig26_HTML.jpg)\n\
…
  \                     input_shape=(maxlen, 1),\n                         return_sequences=True),\n\
  \    tf.keras.layers.LSTM(256,\n                         return_sequences=True),\n\
  \    tf.keras.layers.Dropout(0.2),\n    tf.keras.layers.LSTM(64),\n    tf.keras.layers.Dropout(0.2),\n\
  \    tf.keras.layers.Dense(len(y[1]),\n                          activation='softmax')\n\
  ])\n```\n\n模型摘要如下所示：\n\n```\nModel: \"sequential\"\n____________________________________________________\n\
  Layer (type)          Output Shape        Param #\n====================================================\n\
  lstm (LSTM)           (None, 5, 256)      264192\n____________________________________________________\n\
  lstm_1 (LSTM)        (None, 5, 256)       525312\n____________________________________________________\n\
  dropout (Dropout)    (None, 5, 256)       0\n____________________________________________________\n\
  lstm_2 (LSTM)        (None, 64)           82176\n____________________________________________________\n\
  dropout_1 (Dropout)  (None, 64)           0\n____________________________________________________\n\
  dense (Dense)        (None, 27)           1755\n====================================================\n\
  Total params: 873,435\nTrainable params: 873,435\nNon-trainable params: 0\n```\n\
  \n如您所见，该模型包含三个 LSTM 层，每层由 500 个节点组成。每个 LSTM 层之后是一个 dropout 率为 20% 的 dropout 层。最后一层是一个包含\
  \ 27 个节点的 Dense 层，通过 softmax 激活函数进行分类。请注意，我们的数据有 27 个分类输出。模型的视觉表示如图 7-14 所示。\n\n\
  ![../images/495303_1_En_7_Chapter/495303_1_En_7_Fig14_HTML.jpg](img/495303_1_En_7_Fig14_HTML.jpg)\n\
…
