…
    \ plot is shown in Figure [3-16](#495303_1_En_3_Chapter.xhtml#Fig16).\n\n![../images/495303_1_En_3_Chapter/495303_1_En_3_Fig16_HTML.jpg](images/495303_1_En_3_Chapter/495303_1_En_3_Fig16_HTML.jpg)\n\
    \n**Figure 3-16** Model 1 network plot\n\nThe network summary can be printed by\
    \ calling the `summary` method on the `model_1` instance and is shown below:\n\
    \n```\nModel: \"sequential\"\n_______________________________________________________________\n\
    Layer (type)                 Output Shape              Param #\n===============================================================\n\
    conv2d (Conv2D)              (None, 32, 32, 32)        896\n_______________________________________________________________\n\
    conv2d_1 (Conv2D)            (None, 32, 32, 32)        9248\n_______________________________________________________________\n\
    max_pooling2d (MaxPooling2D) (None, 16, 16, 32)        0\n_______________________________________________________________\n\
    flatten (Flatten)            (None, 8192)              0\n_______________________________________________________________\n\
    dense (Dense)                (None, 128)               1048704\n_______________________________________________________________\n\
    dense_1 (Dense)              (None, 10)                1290\n===============================================================\n\
    Total params: 1,060,138\nTrainable params: 1,060,138\nNon-trainable params: 0\n\
    ```\n\nAfter defining the network, we set the optimizer to SGD and compile the\
    \ model with the loss function set to `categorical_crossentropy` as in the following\
    \ code fragment:\n\n```\nopt = tf.keras.optimizers.SGD(lr=0.001, momentum=0.9)\n\
…
    Dense(128, activation = ''relu''),

    Dense(10, activation = ''softmax'')

    ])

    opt = tf.keras.optimizers.SGD(lr = 0.001, momentum = 0.9)

    model_2.compile(optimizer = opt, loss =

    ''categorical_crossentropy'',

    metrics = [''accuracy''])

    ```


    The model summary is printed below for your quick reference:


    ```

    Model: "sequential_1"

    _______________________________________________________________

    Layer (type)                 Output Shape              Param #

    ===============================================================

    conv2d_2 (Conv2D)            (None, 32, 32, 32)        896

    _______________________________________________________________

    conv2d_3 (Conv2D)            (None, 32, 32, 32)        9248

    _______________________________________________________________

    max_pooling2d_1 (MaxPooling2 (None, 16, 16, 32)        0

    _______________________________________________________________

    conv2d_4 (Conv2D)            (None, 16, 16, 64)        18496

    _______________________________________________________________

    conv2d_5 (Conv2D)            (None, 16, 16, 64)        36928

    _______________________________________________________________

    max_pooling2d_2 (MaxPooling2 (None, 8, 8, 64)          0

    _______________________________________________________________

    flatten_1 (Flatten)          (None, 4096)              0

    _______________________________________________________________

    dense_2 (Dense)              (None, 128)               524416

    _______________________________________________________________

    dense_3 (Dense)              (None, 10)                1290

    ===============================================================

    Total params: 591,274

    Trainable params: 591,274

    Non-trainable params: 0

    ```


    The network plot is shown in Figure [3-19](#495303_1_En_3_Chapter.xhtml#Fig19).


    ![../images/495303_1_En_3_Chapter/495303_1_En_3_Fig19_HTML.jpg](images/495303_1_En_3_Chapter/495303_1_En_3_Fig19_HTML.jpg)


    Figure 3-19


…
    Flatten(),

    Dense(128, activation = ''relu''),

    Dense(10, activation = ''softmax'')

    ])

    opt = tf.keras.optimizers.SGD(lr = 0.001, momentum = 0.9)

    model_3.compile(optimizer = opt, loss = ''categorical_crossentropy'',

    metrics = [''accuracy''])

    ```


    The model’s summary is as follows:


    ```

    Model: "sequential_2"

    _______________________________________________________________

    Layer (type)                 Output Shape              Param #

    ===============================================================

    conv2d_6 (Conv2D)            (None, 32, 32, 32)        896

    _______________________________________________________________

    conv2d_7 (Conv2D)            (None, 32, 32, 32)        9248

    _______________________________________________________________

    max_pooling2d_3 (MaxPooling2 (None, 16, 16, 32)        0

    _______________________________________________________________

    conv2d_8 (Conv2D)            (None, 16, 16, 64)        18496

    _______________________________________________________________

    conv2d_9 (Conv2D)            (None, 16, 16, 64)        36928

    _______________________________________________________________

    max_pooling2d_4 (MaxPooling2 (None, 8, 8, 64)          0

    _______________________________________________________________

    conv2d_10 (Conv2D)           (None, 8, 8, 128)         73856

    _______________________________________________________________

    conv2d_11 (Conv2D)           (None, 8, 8, 128)         147584

    _______________________________________________________________

    max_pooling2d_5 (MaxPooling2 (None, 4, 4, 128)         0

    _______________________________________________________________

    flatten_2 (Flatten)          (None, 2048)              0

    _______________________________________________________________

    dense_4 (Dense)              (None, 128)               262272

    _______________________________________________________________

    dense_5 (Dense)              (None, 10)                1290

    ===============================================================

    Total params: 550,570

    Trainable params: 550,570

    Non-trainable params: 0

    ```


    The network plot for this model is shown in Figure [3-21](#495303_1_En_3_Chapter.xhtml#Fig21).


    ![../images/495303_1_En_3_Chapter/495303_1_En_3_Fig21_HTML.jpg](images/495303_1_En_3_Chapter/495303_1_En_3_Fig21_HTML.jpg)


    Figure 3-21
…
    Dropout(0.3),

    Flatten(),

    Dense(128, activation = ''relu''),

    Dense(10, activation = ''softmax'')

    ])

    opt = tf.keras.optimizers.SGD(lr = 0.001, momentum = 0.9)

    model_4.compile(optimizer = opt, loss = ''categorical_crossentropy'',

    metrics = [''accuracy''])

    ```


    The model summary is shown here:


    ```

    Model: "sequential_3"

    _______________________________________________________________

    Layer (type)                 Output Shape              Param #

    ===============================================================

    conv2d_12 (Conv2D)           (None, 32, 32, 32)        896

    _______________________________________________________________

    conv2d_13 (Conv2D)           (None, 32, 32, 32)        9248

    _______________________________________________________________

    max_pooling2d_6 (MaxPooling2 (None, 16, 16, 32)        0

    _______________________________________________________________

    dropout (Dropout)            (None, 16, 16, 32)        0

    _______________________________________________________________

    conv2d_14 (Conv2D)           (None, 16, 16, 64)        18496

    _______________________________________________________________

    conv2d_15 (Conv2D)           (None, 16, 16, 64)        36928

    _______________________________________________________________

    max_pooling2d_7 (MaxPooling2 (None, 8, 8, 64)          0

    _______________________________________________________________

    dropout_1 (Dropout)          (None, 8, 8, 64)          0

    _______________________________________________________________

    conv2d_16 (Conv2D)           (None, 8, 8, 128)         73856

    _______________________________________________________________

    conv2d_17 (Conv2D)           (None, 8, 8, 128)         147584

    _______________________________________________________________

    max_pooling2d_8 (MaxPooling2 (None, 4, 4, 128)         0

    _______________________________________________________________

    dropout_2 (Dropout)          (None, 4, 4, 128)         0

    _______________________________________________________________

    flatten_3 (Flatten)          (None, 2048)              0

    _______________________________________________________________

    dense_6 (Dense)              (None, 128)               262272

    _______________________________________________________________

    dense_7 (Dense)              (None, 10)                1290

    ===============================================================

    Total params: 550,570

    Trainable params: 550,570

    Non-trainable params: 0

    ```


    The network plot for the model is shown in Figure [3-23](#495303_1_En_3_Chapter.xhtml#Fig23)


    ![../images/495303_1_En_3_Chapter/495303_1_En_3_Fig23_HTML.jpg](images/495303_1_En_3_Chapter/495303_1_En_3_Fig23_HTML.jpg)


    Figure 3-23
…
    Dropout(0.3),

    Flatten(),

    Dense(128, activation = ''relu''),

    Dense(10, activation = ''softmax'')

    ])

    opt = tf.keras.optimizers.SGD(lr = 0.001, momentum = 0.9)

    model_5.compile(optimizer = opt, loss = ''categorical_crossentropy'',

    metrics = [''accuracy''])

    ```


    模型摘要如下：

    '
- fmt: '```

    Model: "sequential_4"

    _______________________________________________________________

    Layer (type)                 Output Shape              Param #

    ===============================================================

    conv2d_18 (Conv2D)           (None, 32, 32, 32)        896

    _______________________________________________________________

    batch_normalization (BatchNo (None, 32, 32, 32)        128

    _______________________________________________________________

    conv2d_19 (Conv2D)           (None, 32, 32, 32)        9248

    _______________________________________________________________

    batch_normalization_1 (Batch (None, 32, 32, 32)        128

    _______________________________________________________________

    max_pooling2d_9 (MaxPooling2 (None, 16, 16, 32)        0

    _______________________________________________________________

    dropout_3 (Dropout)          (None, 16, 16, 32)        0

    _______________________________________________________________

    conv2d_20 (Conv2D)           (None, 16, 16, 64)        18496

    _______________________________________________________________

    batch_normalization_2 (Batch (None, 16, 16, 64)        256

    _______________________________________________________________

    conv2d_21 (Conv2D)           (None, 16, 16, 64)        36928

    _______________________________________________________________

    batch_normalization_3 (Batch (None, 16, 16, 64)        256

    _______________________________________________________________

    max_pooling2d_10 (MaxPooling (None, 8, 8, 64)          0

    _______________________________________________________________

    dropout_4 (Dropout)          (None, 8, 8, 64)          0

    _______________________________________________________________

    conv2d_22 (Conv2D)           (None, 8, 8, 128)         73856

    _______________________________________________________________

    batch_normalization_4 (Batch (None, 8, 8, 128)         512

    _______________________________________________________________

    conv2d_23 (Conv2D)           (None, 8, 8, 128)         147584

    _______________________________________________________________

    batch_normalization_5 (Batch (None, 8, 8, 128)         512

    _______________________________________________________________

    max_pooling2d_11 (MaxPooling (None, 4, 4, 128)         0

    _______________________________________________________________

    dropout_5 (Dropout)          (None, 4, 4, 128)         0

    _______________________________________________________________

    flatten_4 (Flatten)          (None, 2048)              0

    _______________________________________________________________

    dense_8 (Dense)              (None, 128)               262272

    _______________________________________________________________

    dense_9 (Dense)              (None, 10)                1290

    ===============================================================

    Total params: 552,362

    Trainable params: 551,466

    Non-trainable params: 896

    ```


    The network plot is shown in Figure [3-25](#495303_1_En_3_Chapter.xhtml#Fig25).


    ![../images/495303_1_En_3_Chapter/495303_1_En_3_Fig25_HTML.jpg](images/495303_1_En_3_Chapter/495303_1_En_3_Fig25_HTML.jpg)


    **Figure 3-25** Model 5 network plot
…
    \      input_shape=(maxlen, 1),\n                         return_sequences=True),\n\
    \    tf.keras.layers.LSTM(256,\n                         return_sequences=True),\n\
    \    tf.keras.layers.Dropout(0.2),\n    tf.keras.layers.LSTM(64),\n    tf.keras.layers.Dropout(0.2),\n\
    \    tf.keras.layers.Dense(len(y[1]),\n                          activation='softmax')\n\
    ])\n```\n\nThe model summary is shown as follows:\n\n```\nModel: \"sequential\"\
    \n____________________________________________________\nLayer (type)         \
    \ Output Shape        Param #\n====================================================\n\
    lstm (LSTM)           (None, 5, 256)      264192\n____________________________________________________\n\
    lstm_1 (LSTM)        (None, 5, 256)       525312\n____________________________________________________\n\
    dropout (Dropout)    (None, 5, 256)       0\n____________________________________________________\n\
    lstm_2 (LSTM)        (None, 64)           82176\n____________________________________________________\n\
    dropout_1 (Dropout)  (None, 64)           0\n____________________________________________________\n\
    dense (Dense)        (None, 27)           1755\n====================================================\n\
    Total params: 873,435\nTrainable params: 873,435\nNon-trainable params: 0\n```\n\
    \nAs you can see, the model has three LSTM layers each consisting of 500 nodes.\
    \ Each LSTM layer is followed by a dropout layer with 20% dropout. The last layer\
    \ is a Dense layer with 27 nodes classified by softmax activation. Note that our\
…
