…
  \n出于此架构设计的目的，我们将偏置的添加设置为`false`。这意味着网络中所有神经组件的计算都不会添加偏置。不过，我们可以尝试使用偏置。在大多数情况下，只要数据经过中心化和归一化，偏置对网络的影响不大。\n\
  \n让我们查看模型摘要功能输出的模型签名。如果 GPU 可用，我们也可以将模型放入 GPU 进行处理。\n\n```python\nuse_cuda = torch.cuda.is_available()\n\
  device = torch.device(\"cuda\" if use_cuda else \"cpu\")\nprint(\"Available processor\
  \ {}\".format(device))\nmodel = Net().to(device)\nsummary(model, input_size=(3,\
  \ 224, 224))\nAvailable processor cuda\n```\n\n\n\n```text\nLayer (type)       \
  \        Output Shape         Param #\n===============================================================\n\
  Conv2d-1          [-1, 8, 222, 222]             216\nReLU-2          [-1, 8, 222,\
  \ 222]               0\nMaxPool2d-3          [-1, 8, 111, 111]               0\n\
  Conv2d-4         [-1, 16, 109, 109]           1,152\nReLU-5         [-1, 16, 109,\
  \ 109]               0\nMaxPool2d-6           [-1, 16, 54, 54]               0\n\
  Conv2d-7           [-1, 10, 54, 54]             160\nReLU-8           [-1, 10, 54,\
  \ 54]               0\nMaxPool2d-9           [-1, 10, 27, 27]               0\n\
  Conv2d-10           [-1, 10, 25, 25]             900\nReLU-11           [-1, 10,\
  \ 25, 25]               0\nConv2d-12           [-1, 32, 25, 25]             320\n\
  ReLU-13           [-1, 32, 25, 25]               0\nConv2d-14           [-1, 10,\
  \ 25, 25]             320\nReLU-15           [-1, 10, 25, 25]               0\n\
  Conv2d-16           [-1, 10, 23, 23]             900\nReLU-17           [-1, 10,\
  \ 23, 23]               0\nConv2d-18           [-1, 32, 23, 23]             320\n\
  ReLU-19           [-1, 32, 23, 23]               0\nConv2d-20           [-1, 10,\
  \ 23, 23]             320\nReLU-21           [-1, 10, 23, 23]               0\n\
  Conv2d-22           [-1, 14, 21, 21]           1,260\nReLU-23           [-1, 14,\
  \ 21, 21]               0\nConv2d-24           [-1, 16, 19, 19]           2,016\n\
  ReLU-25           [-1, 16, 19, 19]               0\nAvgPool2d-26             [-1,\
  \ 16, 4, 4]               0\nConv2d-27              [-1, 2, 1, 1]             512\n\
  ===============================================================\nTotal params: 8,396\n\
  Trainable params: 8,396\nNon-trainable params: 0\n\nInput size (MB): 0.57\nForward/backward\
  \ pass size (MB): 11.63\nParams size (MB): 0.03\nEstimated Total Size (MB): 12.23\n\
  ```\n\n这是根据模型设计创建的模型摘要。我们通过输入模型期望的输入维度来计算工作流程，并在此过程中对其进行验证。\n\n我们需要关注模型的可训练参数和不可训练参数，这将是影响我们训练以及投入生产环境的权重量的一个因素。模型大小显示为\
  \ 11.63MB。\n\n### 训练过程\n\n在定义模型和数据加载器之后，我们进入了训练环节。训练过程将包括以下重要步骤：\n\n1.  为模型工作流程初始化梯度。\n\
…
  x = self.convblock7(x)\nx = self.convblock8(x)\nx = self.convblock9(x)\nx = self.convblock10(x)\n\
  x = self.convblock11(x)\nx = self.gap(x)\nx = self.convblockout(x)\nx = x.view(-1,\
  \ 2)\nreturn F.log_softmax(x, dim=-1)\n```\n\n一旦我们将批归一化添加到模型块中，准确率便随之提升。测试准确率在第十个\
  \ epoch 达到峰值，接近 90%。此后，准确率一直保持在 85%左右，直到第十五个 epoch。这对于理解不同类别之间的差异来说，是一个巨大的进步。\n\n\
  还有一点需要检查。对于相同的处理器，我们预计每个 epoch 的时间消耗会更高，但考虑到它所带来的准确率提升幅度，这种增加不应显著到足以造成麻烦。让我们来看看由`torch`的\
  \ summary 函数描述的模型定义。\n\n\n```text\nLayer (type)               Output Shape     \
  \    Param #\n===============================================================\n\
  Conv2d-1          [-1, 8, 222, 222]             216\nReLU-2          [-1, 8, 222,\
  \ 222]               0\nBatchNorm2d-3          [-1, 8, 222, 222]              16\n\
  MaxPool2d-4          [-1, 8, 111, 111]               0\nConv2d-5         [-1, 16,\
  \ 109, 109]           1,152\nReLU-6         [-1, 16, 109, 109]               0\n\
  BatchNorm2d-7         [-1, 16, 109, 109]              32\nMaxPool2d-8          \
  \ [-1, 16, 54, 54]               0\nConv2d-9           [-1, 10, 54, 54]        \
  \     160\nReLU-10           [-1, 10, 54, 54]               0\nBatchNorm2d-11  \
  \         [-1, 10, 54, 54]              20\nMaxPool2d-12           [-1, 10, 27,\
  \ 27]               0\nConv2d-13           [-1, 10, 25, 25]             900\nReLU-14\
  \           [-1, 10, 25, 25]               0\nBatchNorm2d-15           [-1, 10,\
  \ 25, 25]              20\nConv2d-16           [-1, 32, 25, 25]             320\n\
  ReLU-17           [-1, 32, 25, 25]               0\nBatchNorm2d-18           [-1,\
  \ 32, 25, 25]              64\nConv2d-19           [-1, 10, 25, 25]            \
  \ 320\nReLU-20           [-1, 10, 25, 25]               0\nBatchNorm2d-21      \
  \     [-1, 10, 25, 25]              20\nConv2d-22           [-1, 10, 23, 23]   \
  \          900\nReLU-23           [-1, 10, 23, 23]               0\nBatchNorm2d-24\
  \           [-1, 10, 23, 23]              20\nConv2d-25           [-1, 32, 23, 23]\
  \             320\nReLU-26           [-1, 32, 23, 23]               0\nBatchNorm2d-27\
  \           [-1, 32, 23, 23]              64\nConv2d-28           [-1, 10, 23, 23]\
  \             320\nReLU-29           [-1, 10, 23, 23]               0\nBatchNorm2d-30\
  \           [-1, 10, 23, 23]              20\nConv2d-31           [-1, 14, 21, 21]\
  \           1,260\nReLU-32           [-1, 14, 21, 21]               0\nBatchNorm2d-33\
  \           [-1, 14, 21, 21]              28\nConv2d-34           [-1, 16, 19, 19]\
  \           2,016\nReLU-35           [-1, 16, 19, 19]               0\nBatchNorm2d-36\
  \           [-1, 16, 19, 19]              32\nAvgPool2d-37             [-1, 16,\
  \ 4, 4]               0\nConv2d-38              [-1, 2, 1, 1]             512\n\
  ===============================================================\nTotal params: 8,732\n\
  Trainable params: 8,732\nNon-trainable params: 0\n\nInput size (MB): 0.57\nForward/backward\
  \ pass size (MB): 16.86\nParams size (MB): 0.03\nEstimated Total Size (MB): 17.46\n\
  ```\n\n我们可以看到，在添加批归一化后，模型大小从 12.23MB 增加到了 17.46MB。可训练参数的数量也从 8396 增加到了 8732。根据我们对批归一化概念的理解，每个通道会增加两个可训练参数。模型的最后一层不应包含任何批归一化或丢弃层。\n\
…
