…
    出于此架构设计的目的，我们将偏置的添加设置为`false`。这意味着网络中所有神经组件的计算都不会添加偏置。不过，我们可以尝试使用偏置。在大多数情况下，只要数据经过中心化和归一化，偏置对网络的影响不大。


    让我们查看模型摘要功能输出的模型签名。如果 GPU 可用，我们也可以将模型放入 GPU 进行处理。


    ```python

    use_cuda = torch.cuda.is_available()

    device = torch.device("cuda" if use_cuda else "cpu")

    print("Available processor {}".format(device))

    model = Net().to(device)

    summary(model, input_size=(3, 224, 224))

    Available processor cuda

    ```

    '
- fmt: "```text\nLayer (type)               Output Shape         Param #\n===============================================================\n\
    Conv2d-1          [-1, 8, 222, 222]             216\nReLU-2          [-1, 8, 222,\
    \ 222]               0\nMaxPool2d-3          [-1, 8, 111, 111]               0\n\
    Conv2d-4         [-1, 16, 109, 109]           1,152\nReLU-5         [-1, 16, 109,\
    \ 109]               0\nMaxPool2d-6           [-1, 16, 54, 54]               0\n\
    Conv2d-7           [-1, 10, 54, 54]             160\nReLU-8           [-1, 10,\
    \ 54, 54]               0\nMaxPool2d-9           [-1, 10, 27, 27]            \
    \   0\nConv2d-10           [-1, 10, 25, 25]             900\nReLU-11         \
    \  [-1, 10, 25, 25]               0\nConv2d-12           [-1, 32, 25, 25]    \
    \         320\nReLU-13           [-1, 32, 25, 25]               0\nConv2d-14 \
    \          [-1, 10, 25, 25]             320\nReLU-15           [-1, 10, 25, 25]\
    \               0\nConv2d-16           [-1, 10, 23, 23]             900\nReLU-17\
    \           [-1, 10, 23, 23]               0\nConv2d-18           [-1, 32, 23,\
    \ 23]             320\nReLU-19           [-1, 32, 23, 23]               0\nConv2d-20\
    \           [-1, 10, 23, 23]             320\nReLU-21           [-1, 10, 23, 23]\
    \               0\nConv2d-22           [-1, 14, 21, 21]           1,260\nReLU-23\
    \           [-1, 14, 21, 21]               0\nConv2d-24           [-1, 16, 19,\
    \ 19]           2,016\nReLU-25           [-1, 16, 19, 19]               0\nAvgPool2d-26\
    \             [-1, 16, 4, 4]               0\nConv2d-27              [-1, 2, 1,\
    \ 1]             512\n===============================================================\n\
    Total params: 8,396\nTrainable params: 8,396\nNon-trainable params: 0\n\nInput\
    \ size (MB): 0.57\nForward/backward pass size (MB): 11.63\nParams size (MB): 0.03\n\
    Estimated Total Size (MB): 12.23\n```\n\nThis is the summary of the model created\
    \ from the model design. We are calculating the workflow by giving the input dimensions\
…
    \ it is not good for convolutional neural networks. The gradient-accumulation\
    \ process can be leveraged for temporal-based models and architectures.\n\n4.\
    \  We use the data loader to generate batches of images and pass them on to the\
    \ model for training.\n\n5.  We calculate the prediction from the forward pass\
    \ and place that in a variable. Once that is done, we calculate the losses due\
    \ to the prediction from the model."
  raw: 'Layer (type)               Output Shape         Param #

    ===============================================================

    Conv2d-1          [-1, 8, 222, 222]             216

    ReLU-2          [-1, 8, 222, 222]               0

    MaxPool2d-3          [-1, 8, 111, 111]               0

    Conv2d-4         [-1, 16, 109, 109]           1,152

    ReLU-5         [-1, 16, 109, 109]               0

    MaxPool2d-6           [-1, 16, 54, 54]               0

    Conv2d-7           [-1, 10, 54, 54]             160

    ReLU-8           [-1, 10, 54, 54]               0

    MaxPool2d-9           [-1, 10, 27, 27]               0

    Conv2d-10           [-1, 10, 25, 25]             900

    ReLU-11           [-1, 10, 25, 25]               0

    Conv2d-12           [-1, 32, 25, 25]             320

    ReLU-13           [-1, 32, 25, 25]               0

    Conv2d-14           [-1, 10, 25, 25]             320

    ReLU-15           [-1, 10, 25, 25]               0

    Conv2d-16           [-1, 10, 23, 23]             900

    ReLU-17           [-1, 10, 23, 23]               0

    Conv2d-18           [-1, 32, 23, 23]             320

    ReLU-19           [-1, 32, 23, 23]               0

    Conv2d-20           [-1, 10, 23, 23]             320

    ReLU-21           [-1, 10, 23, 23]               0

    Conv2d-22           [-1, 14, 21, 21]           1,260

    ReLU-23           [-1, 14, 21, 21]               0

    Conv2d-24           [-1, 16, 19, 19]           2,016

    ReLU-25           [-1, 16, 19, 19]               0

    AvgPool2d-26             [-1, 16, 4, 4]               0

    Conv2d-27              [-1, 2, 1, 1]             512

    ===============================================================

    Total params: 8,396

    Trainable params: 8,396

    Non-trainable params: 0


    Input size (MB): 0.57

    Forward/backward pass size (MB): 11.63

    Params size (MB): 0.03

    Estimated Total Size (MB): 12.23


    ```


    This is the summary of the model created from the model design. We are calculating
    the workflow by giving the input dimensions expected by the model and validating
…
    x = self.convblock9(x)

    x = self.convblock10(x)

    x = self.convblock11(x)

    x = self.gap(x)

    x = self.convblockout(x)

    x = x.view(-1, 2)

    return F.log_softmax(x, dim=-1)

    ```


    一旦我们将批归一化添加到模型块中，准确率便随之提升。测试准确率在第十个 epoch 达到峰值，接近 90%。此后，准确率一直保持在 85%左右，直到第十五个
    epoch。这对于理解不同类别之间的差异来说，是一个巨大的进步。


    还有一点需要检查。对于相同的处理器，我们预计每个 epoch 的时间消耗会更高，但考虑到它所带来的准确率提升幅度，这种增加不应显著到足以造成麻烦。让我们来看看由`torch`的
    summary 函数描述的模型定义。

    '
- fmt: '```text

    Layer (type)               Output Shape         Param #

    ===============================================================

    Conv2d-1          [-1, 8, 222, 222]             216

    ReLU-2          [-1, 8, 222, 222]               0

    BatchNorm2d-3          [-1, 8, 222, 222]              16

    MaxPool2d-4          [-1, 8, 111, 111]               0

    Conv2d-5         [-1, 16, 109, 109]           1,152

    ReLU-6         [-1, 16, 109, 109]               0

    BatchNorm2d-7         [-1, 16, 109, 109]              32

    MaxPool2d-8           [-1, 16, 54, 54]               0

    Conv2d-9           [-1, 10, 54, 54]             160

    ReLU-10           [-1, 10, 54, 54]               0

    BatchNorm2d-11           [-1, 10, 54, 54]              20

    MaxPool2d-12           [-1, 10, 27, 27]               0

    Conv2d-13           [-1, 10, 25, 25]             900

    ReLU-14           [-1, 10, 25, 25]               0

    BatchNorm2d-15           [-1, 10, 25, 25]              20

    Conv2d-16           [-1, 32, 25, 25]             320

    ReLU-17           [-1, 32, 25, 25]               0

    BatchNorm2d-18           [-1, 32, 25, 25]              64

    Conv2d-19           [-1, 10, 25, 25]             320

    ReLU-20           [-1, 10, 25, 25]               0

    BatchNorm2d-21           [-1, 10, 25, 25]              20

    Conv2d-22           [-1, 10, 23, 23]             900

    ReLU-23           [-1, 10, 23, 23]               0

    BatchNorm2d-24           [-1, 10, 23, 23]              20

    Conv2d-25           [-1, 32, 23, 23]             320

    ReLU-26           [-1, 32, 23, 23]               0

    BatchNorm2d-27           [-1, 32, 23, 23]              64

    Conv2d-28           [-1, 10, 23, 23]             320

    ReLU-29           [-1, 10, 23, 23]               0

    BatchNorm2d-30           [-1, 10, 23, 23]              20

    Conv2d-31           [-1, 14, 21, 21]           1,260

    ReLU-32           [-1, 14, 21, 21]               0

    BatchNorm2d-33           [-1, 14, 21, 21]              28

    Conv2d-34           [-1, 16, 19, 19]           2,016

    ReLU-35           [-1, 16, 19, 19]               0

    BatchNorm2d-36           [-1, 16, 19, 19]              32

    AvgPool2d-37             [-1, 16, 4, 4]               0

    Conv2d-38              [-1, 2, 1, 1]             512

    ===============================================================

    Total params: 8,732

    Trainable params: 8,732

    Non-trainable params: 0


    Input size (MB): 0.57

    Forward/backward pass size (MB): 16.86

    Params size (MB): 0.03

    Estimated Total Size (MB): 17.46

    ```


    We can see that the model size has increased from 12.23MB to 17.46MB when we add
    batch normalization. The number of trainable parameters also went up from 8396
…
