…
odel.add(layers.MaxPooling2D(pool_size = (2, 2),\nstrides = (2, 2)))\nmodel.add(layers.Flatten())\nmodel.add(layers.Dense(128, activation = 'relu'))\nmodel.add(layers.Dense(10, activation = 'softmax'))\n# compile model\nmodel.compile(loss = 'categorical_crossentropy',\noptimizer = 'adam',\nmetrics = ['categorical_accuracy'])\nreturn model\n```", "```py\nModel: \"sequential\"\n______________________________________________________________\nLayer (type)                 Output Shape              Param #\n==============================================================\nconv2d (Conv2D)              (None, 24, 24, 6)         156\n______________________________________________________________\nmax_pooling2d (MaxPooling2D) (None, 12, 12, 6)         0\n______________________________________________________________\nconv2d_1 (Conv2D)            (None, 8, 8, 16)          2416\n______________________________________________________________\nmax_pooling2d_1 (MaxPooling2 (None, 4, 4, 16)          0\n______________________________________________________________\nflatten (Flatten)            (None, 256)               0\n______________________________________________________________\ndense (Dense)                (None, 128)               32896\n______________________________________________________________\ndense_1 (Dense)              (None, 10)                1290\n==============================================================\nTotal params: 36,758\nTrainable params: 36,758\nNon-trainable params: 0\n______________________________________________________________\n```", "```py\nmodel.fit(data_train_norm, labels_train, validation_data = (data_test_norm, labels_test), epochs = 10, batch_size = 100, verbose = 1)\n```", "```py\nfrom tensorflow import keras\n(x_t
…
