…
el = keras.models.Sequential()\ncurr_nodes = 28 * 28\nmodel.add(L.Input((curr_nodes,)))\nwhile curr_nodes > 10:\ncurr_nodes = round(1/2 * curr_nodes)\nmodel.add(L.Dense(curr_nodes,\nactivation='relu'))\nmodel.add(L.Dense(10, activation='softmax'))\nListing 4-5\nProgrammatically generating a model to fit the “flattened” MNIST dataset\n```", "```py\nModel: \"sequential\"\n_________________________________________________________________\nLayer (type)                 Output Shape              Param #\n=================================================================\ndense (Dense)                (None, 392)               307720\n_________________________________________________________________\ndense_1 (Dense)              (None, 196)               77028\n_________________________________________________________________\ndense_2 (Dense)              (None, 98)                19306\n_________________________________________________________________\ndense_3 (Dense)              (None, 49)                4851\n_________________________________________________________________\ndense_4 (Dense)              (None, 24)                1200\n_________________________________________________________________\ndense_5 (Dense)              (None, 12)                300\n_________________________________________________________________\ndense_6 (Dense)              (None, 10)                130\n=================================================================\nTotal params: 410,535\nTrainable params: 410,535\nNon-trainable params: 0\n_________________________________________________________________\nListing 4-6\nParameter and shape summary for the architecture written in Listing 4-5\n```", "```py\nmodel.compile(optimizer='adam',\nloss='sparse_categorical_crossentropy',\nmetrics=['accur
…
0\nmodel.add(L.Input((curr_nodes,)))\nwhile curr_nodes > 20:\ncurr_nodes = round(1/2 * curr_nodes)\nmodel.add(L.Dense(curr_nodes,\nactivation='relu'))\nmodel.add(L.Dense(10, activation='softmax'))\nListing 4-8\nProgrammatically generating an architecture (like in Listing 4-5) for a sample dataset with an input of shape (200, 200, 1)\n```", "```py\nModel: \"sequential\"\n_________________________________________________________________\nLayer (type)                 Output Shape              Param #\n=================================================================\ndense (Dense)                (None, 20000)             800020000\n_________________________________________________________________\ndense_1 (Dense)              (None, 10000)             200010000\n_________________________________________________________________\ndense_2 (Dense)              (None, 5000)              50005000\n_________________________________________________________________\ndense_3 (Dense)              (None, 2500)              12502500\n_________________________________________________________________\ndense_4 (Dense)              (None, 1250)              3126250\n_________________________________________________________________\ndense_5 (Dense)              (None, 625)               781875\n_________________________________________________________________\ndense_6 (Dense)              (None, 312)               195312\n_________________________________________________________________\ndense_7 (Dense)              (None, 156)               48828\n_________________________________________________________________\ndense_8 (Dense)              (None, 78)                12246\n_________________________________________________________________\ndense_9 (Dense)              (None, 39)                3081\n_________________________________________________________________\ndense_10 (Dense)             (None, 20)                800\n_________________________________________________________________\ndense_11 (Dense)             (None, 10)                210\n=================================================================\nTotal params: 1,066,706,102\nTrainable params: 1,066,706,102\nNon-trainable params: 0\n_________________________________________________________________\nListing 4-9\nParameter and shape summary for the architecture written in Listing 4-8\n```", "```py\n# initialize 'canvas' of zeros\nimg = np.zeros((10, 10))\n# draw background g
…
, 'Slope', 'Horizontal_Distance_To_Hydrology',\n'Vertical_Distance_To_Hydrology', 'Horizontal_Distance_To_Roadways',\n'Hillshade_9am', 'Hillshade_Noon', 'Hillshade_3pm',\n'Horizontal_Distance_To_Fire_Points', 'Wilderness_Area1', ... ,\n'Wilderness_Area4',\n'Soil_Type1', 'Soil_Type2', ... 'Soil_Type39', 'Soil_Type40',\n'Cover_Type'])\n```", "```py\nModel: \"sequential\"\n_________________________________________________________________\nLayer (type)                 Output Shape              Param #\n=================================================================\ndense (Dense)                (None, 108)               5940\n_________________________________________________________________\ndense_1 (Dense)              (None, 864)               94176\n_________________________________________________________________\nreshape (Reshape)            (None, 54, 16)            0\n_________________________________________________________________\nconv1d (Conv1D)              (None, 54, 16)            784\n_________________________________________________________________\nconv1d_1 (Conv1D)            (None, 54, 16)            784\n_________________________________________________________________\naverage_pooling1d (AveragePo (None, 27, 16)            0\n_________________________________________________________________\nconv1d_2 (Conv1D)            (None, 27, 16)            784\n_________________________________________________________________\nconv1d_3 (Conv1D)            (None, 27, 16)            784\n_________________________________________________________________\naverage_pooling1d_1 (Average (None, 13, 16)            0\n_________________________________________________________________\nconv1d_4 (Conv1D)            (None, 13, 16)            784\n_________________________________________________________________\nconv1d_5 (Conv1D)            (None, 13, 16)            784\n_________________________________________________________________\naverage_pooling1d_2 (Average (None, 6, 16)             0\n_________________________________________________________________\nconv1d_6 (Conv1D)            (None, 6, 16)             784\n_________________________________________________________________\nconv1d_7 (Conv1D)            (None, 6, 16)             784\n_________________________________________________________________\naverage_pooling1d_3 (Average (None, 3, 16)             0\n_________________________________________________________________\nconv1d_8 (Conv1D)            (None, 3, 16)             784\n_________________________________________________________________\nconv1d_9 (Conv1D)            (None, 3, 16)             784\n_________________________________________________________________\naverage_pooling1d_4 (Average (None, 1, 16)             0\n_________________________________________________________________\nflatten (Flatten)            (None, 16)                0\n_________________________________________________________________\ndense_2 (Dense)              (None, 16)                272\n_________________________________________________________________\ndense_3 (Dense)              (None, 16)                272\n_________________________________________________________________\ndense_4 (Dense)              (None, 7)                 119\n=================================================================\nTotal params: 108,619\nTrainable params: 108,619\nNon-trainable params: 0\n_________________________________________________________________\nListing 4-56\nLayers and parameter summary of a 1D soft ordering CNN\n```", "```py\nmodel.compile(optimizer='adam',\nloss='sparse_categorical_crossentropy',\nmetrics=['accuracy'])\nhistory 
…
